backend/recommendation_engine/model/lightgcn_trained.pt (torch, 3629 bytes, 2 tensors)

user_embedding.weight f4 [2, 64]
0	0x3d39369e	0.045218103
1	0x3cef478f	0.029208926
2	0xbc0b037e	-0.008484719
3	0xbe693594	-0.22774345
4	0xbde92bad	-0.113852836
5	0x3e51fd29	0.20506729
6	0x3e9bc654	0.3042475
7	0x3e2aa1a1	0.16663219
8	0x3d507b60	0.05089891
9	0x3e4cce8b	0.20000665
10	0xbdab8485	-0.083748855
11	0xbe575879	-0.21029843
12	0xbe4f02a3	-0.2021585
13	0x3dc30f5b	0.09524413
14	0xbd89102e	-0.06692539
15	0x3e537615	0.20650513
16	0x3ca2f167	0.0198905
17	0x38cc9f08	9.7571e-05
18	0xbe395ca5	-0.18101747
19	0xbdc231cf	-0.094821565
20	0xbe8d8729	-0.27642182
21	0x3e32cc19	0.1746067
22	0x3ca92360	0.02064675
23	0xbde2c66d	-0.11073003
24	0x3d1136be	0.035452597
25	0x3e333632	0.17501143
26	0xbe2ae7ce	-0.16689989
27	0xbe884ce6	-0.2662117
28	0x3e175876	0.14779839
29	0x3d1c315d	0.038133014
30	0x3e95500f	0.29162642
31	0x3d405aeb	0.046961706
32	0x3e28163b	0.1641473
33	0x3dfbe75f	0.1229999
34	0x3da0fd03	0.07860758
35	0xbde0bd7b	-0.109736405
36	0xbe78c0db	-0.24292319
37	0x3e4df459	0.20112742
38	0xbe988844	-0.29791462
39	0xbe3d0f22	-0.18462804
40	0xbea207a7	-0.31646463
41	0xbd8aa8b0	-0.06770456
42	0xbdc5f8d0	-0.09666598
43	0xbe7fcc50	-0.24980283
44	0x3e7fb56d	0.24971552
45	0xbb09a9ab	-0.002100567
46	0x3e088b46	0.13334379
47	0x3cbb7cc2	0.022886638
48	0xbd68bb6f	-0.056819376
49	0xbd8f9792	-0.070113316
50	0xbe7cd3ce	-0.24690172
51	0x3e8eb873	0.278751
52	0xbdfc418d	-0.1231719
53	0xbe52c1be	-0.2058172
54	0x3d02db45	0.031947393
55	0x3e5ef080	0.21771431
56	0x3e7941dd	0.24341531
57	0x3e4af4c9	0.1981994
58	0x3e13708d	0.14398403
59	0xbe02a542	-0.12758353
60	0x3e80974b	0.25115427
61	0xbe490c5b	-0.1963362
62	0x3e88fb89	0.26754406
63	0xbbe395cb	-0.006945347
64	0xbe84d2ef	-0.2594218
65	0xbe3cc985	-0.18436249
66	0xbd7a8905	-0.06116583
67	0x3c9d9c9a	0.019239713
68	0x3d9bc689	0.07606227
69	0xbe725d5d	-0.23668428
70	0x3c5cb80a	0.013471613
71	0x3e585f8c	0.21130198
72	0x3e371231	0.17878033
73	0xbdaacf85	-0.083403625
74	0xbd990683	-0.07471945
75	0x3e915b5f	0.28390023
76	0xbe0fe96b	-0.14053886
77	0xbdb270f0	-0.08712947
78	0x3ea8c4cf	0.32962653
79	0xbe1f1973	-0.15537052
80	0xbd85bbdc	-0.06529972
81	0xbe61da8c	-0.22056025
82	0xbd3a4127	-0.04547229
83	0x3e914dba	0.28379613
84	0x3e738a2e	0.2378318
85	0x3d9c16f2	0.07621564
86	0x3df834de	0.121194586
87	0xbe1f5445	-0.1555949
88	0x3e4444e0	0.19166899
89	0xbe71e980	-0.2362423
90	0x3c6e159b	0.014531518
91	0x3dcff91a	0.10154934
92	0xbdfd8739	-0.12379307
93	0x3e92c116	0.28662938
94	0x3e11ab7b	0.14225571
95	0xbd6d0e8e	-0.05787521
96	0xbdf180dd	-0.11792157
97	0xbdfe31a5	-0.12411813
98	0x3e85d7f3	0.2614132
99	0x3d26a2da	0.04068265
100	0xbe51d438	-0.20491111
101	0xbe1c9eaf	-0.15294908
102	0x3e3da14f	0.18518566
103	0x3e34ed9e	0.17668769
104	0xbd76918b	-0.060197394
105	0x3e067cc9	0.1313354
106	0xbbb9679e	-0.005658104
107	0x3e41c30f	0.18922065
108	0x3e1da6e4	0.15395695
109	0x3de0e7aa	0.109816864
110	0xbb2acdde	-0.0026062648
111	0xbc29a2bc	-0.01035374
112	0x3e46f0f5	0.19427855
113	0x3e8cfdac	0.27537286
114	0xbd09bb42	-0.03362585
115	0x3d23a371	0.03995079
116	0xbe226c98	-0.15861738
117	0xbdf7cb12	-0.120992795
118	0x3e0ee757	0.13955437
119	0xbc1c4da4	-0.009539995
120	0xbe40069e	-0.18752524
121	0xbd33e10c	-0.043915793
122	0x3e38a7be	0.18032739
123	0x3cff181c	0.031139426
124	0xbc615a9c	-0.013754513
125	0xbe0d1e56	-0.13781103
126	0x3dc3b7c5	0.09556536
127	0xbc42d605	-0.011891847

item_embedding.weight f4 [4, 64]
0	0x3e0fa995	0.14029534
1	0xbbc940a2	-0.006141738
2	0xbdf0d984	-0.11760238
3	0x3da28024	0.07934597
4	0xbe62e711	-0.22158457
5	0xbe4821b5	-0.19544108
6	0x3dc63b76	0.0967931
7	0x3e883c66	0.2660858
8	0x3e17aca4	0.14811951
9	0x3dbeb16c	0.09311184
10	0xbe7e23f3	-0.24818401
11	0x3e80cd4f	0.25156638
12	0xbe86c393	-0.26321086
13	0xbe7a09d4	-0.24417812
14	0x3e90bcc7	0.28269026
15	0x3a17a432	0.000578466
16	0x3d277b3d	0.040889014
17	0xbd60a546	-0.054845117
18	0x3e6b5830	0.2298286
19	0x3e66d5dc	0.22542518
20	0xbbda6c4b	-0.0066657416
21	0x3e8167a6	0.2527439
22	0x3dfe09d6	0.1240422
23	0x3e6a0e2e	0.22856972
24	0x3e051acb	0.12998502
25	0xbc25b55f	-0.010114043
26	0xbda2450b	-0.07923325
27	0x3e4157eb	0.18881194
28	0xbdb942eb	-0.09045967
29	0x3d8917c8	0.06693989
30	0x3e5789aa	0.21048608
31	0x3d92cb62	0.071676984
32	0xbd2d64e3	-0.04233254
33	0xbe0e841a	-0.1391758
34	0xbd4ba22b	-0.049715202
35	0xbe8a9dba	-0.2707346
36	0xbdcaa9b7	-0.09895652
37	0x3e544c81	0.20732309
38	0xbe456061	-0.19275047
39	0xbc6551b1	-0.0139965275
40	0xbe974a57	-0.29548904
41	0x3dc30b3a	0.09523626
42	0x3de13fe3	0.109985135
43	0xbe3f07e8	-0.1865536
44	0xbdf7c871	-0.12098778
45	0x3e25d7e7	0.16195641
46	0x3d8a0705	0.0673962
47	0xbe6e1c51	-0.2325299
48	0x3e0de612	0.13857296
49	0xbddafabb	-0.10692354
50	0x3e775018	0.24151647
51	0xbe2e6c04	-0.17033392
52	0xbce59b37	-0.028028114
53	0x3e72911d	0.23688169
54	0x3dcdae89	0.100430556
55	0xbce72b21	-0.028218808
56	0xbe027c86	-0.12742814
57	0xbbab08c7	-0.005219552
58	0xbe7fba48	-0.24973404
59	0xbe88301c	-0.26599205
60	0xbd976063	-0.07391431
61	0x3c52ce71	0.012866602
62	0xbe174869	-0.14773716
63	0xbdfd7de6	-0.12377529
64	0xbdf38a95	-0.11891667
65	0x3e3e5096	0.18585429
66	0xbe948c64	-0.2901336
67	0x3c0d4f0a	0.008624801
68	0x3e717463	0.23579554
69	0xbdba88a0	-0.091080904
70	0x3e87ea7b	0.26546082
71	0x3e08a64d	0.13344689
72	0xbe140f6b	-0.14459006
73	0xbc80140a	-0.015634555
74	0x3ddf8a9f	0.10915112
75	0x3db4d660	0.08829951
76	0x3e1b119b	0.15143435
77	0xbc2cfcbb	-0.0105583025
78	0x3e650942	0.22366813
79	0xbe2e6b7e	-0.17033193
80	0xbd76b098	-0.060227007
81	0xbd9a9f2d	-0.075498916
82	0x3e4b14e2	0.19832185
83	0x3d8787f8	0.06617731
84	0x3ddd1eed	0.10796914
85	0x3e8f0300	0.27931976
86	0x3d8d697a	0.06904884
87	0x3e278861	0.16360618
88	0xbdbedf16	-0.09319894
89	0x3da3e726	0.080030724
90	0xbd18affe	-0.037277214
91	0x3e1ac212	0.15113094
92	0x3d9707bd	0.07374523
93	0xbe26d65a	-0.16292706
94	0xbe281745	-0.16415127
95	0x3e5b9f29	0.21447434
96	0x3e8bb51b	0.2728661
97	0x3c944871	0.018100949
98	0x3e30a97b	0.17252152
99	0x3e4c3766	0.19943008
100	0x3e51f616	0.2050403
101	0x3d6cdb32	0.05782623
102	0xbe811ab0	-0.25215673
103	0x3e901d25	0.28147236
104	0x3da46829	0.080276795
105	0xbe745633	-0.23861007
106	0xbe2c290e	-0.16812536
107	0xbdf78de6	-0.12087612
108	0x3e21a5c4	0.15785891
109	0x3e96c003	0.29443368
110	0xbce7d1c5	-0.028298268
111	0x3d80b1a8	0.06283885
112	0xbe6a7502	-0.22896197
113	0x3e305c5c	0.17222732
114	0xbb026ef9	-0.001990257
115	0xbbb03dc6	-0.0053784577
116	0xbe9cc780	-0.30620956
117	0x3e168ac0	0.14701366
118	0x3d297dab	0.041379612
119	0xbe4dd669	-0.20101322
120	0xbe38bf95	-0.18041833
121	0xbd4ed7da	-0.05049882
122	0xbe292f8e	-0.16522047
123	0x3e68d2be	0.22736642
124	0x3e422c44	0.18962198
125	0xbea58f9d	-0.3233613
126	0x3e055bda	0.1302332
127	0xbc9afe64	-0.018920131
128	0xbe54b4b2	-0.20772055
129	0xbe35d227	-0.17755948
130	0xbe07f7f3	-0.13278179
131	0xbe8cd75e	-0.27508062
132	0xbd1e105b	-0.038589817
133	0x3e82999b	0.25507817
134	0xbe75055a	-0.23927823
135	0x3dd5f719	0.10447521
136	0x3e2c4ca2	0.16826108
137	0xbe866ff7	-0.26257297
138	0xbc4e66b3	-0.012597728
139	0xbe490ddb	-0.19634192
140	0x3e34e45a	0.17665234
141	0x3c816c12	0.015798602
142	0xbe9b4bbf	-0.30331227
143	0x3e90c826	0.282777
144	0x3e82a277	0.25514576
145	0x3d3ab324	0.045580998
146	0xbe4f5107	-0.20245753
147	0xbad6b0e1	-0.0016379618
148	0xbe105204	-0.14093786
149	0x3da21f68	0.079161465
150	0xbd8c7031	-0.06857336
151	0x3dda5631	0.10660971
152	0xbda4b3c8	-0.08042103
153	0xbe3f80b0	-0.18701434
154	0xbde1a62e	-0.110180244
155	0xbb06c235	-0.0020562534
156	0xbe19327c	-0.14960665
157	0xbc98f0e1	-0.018669548
158	0x3c4a0cea	0.0123321805
159	0xbdb6bf3c	-0.08923194
160	0x3e6ddce9	0.23228802
161	0x3e8cc7e3	0.2749625
162	0xbe0f716b	-0.1400811
163	0x3e6cf3a8	0.23139822
164	0x3e8eeb5b	0.27913937
165	0x3dd213e0	0.10257697
166	0xbe85b829	-0.26117066
167	0xbd855124	-0.06509617
168	0x3e5dbd2e	0.21654198
169	0xbe99acda	-0.30014688
170	0x3df48fda	0.119415
171	0xbe43feae	-0.19140121
172	0xbe917e3c	-0.28416622
173	0x3acacc24	0.0015472216
174	0x3e27120b	0.16315477
175	0xbda15f06	-0.078794524
176	0x3cfc1646	0.03077234
177	0x3e04f4c7	0.12984
178	0x3e30ff61	0.1728492
179	0x3c49aae2	0.012308808
180	0x3e0aa1a3	0.13538222
181	0x3e9d83b1	0.30764535
182	0xbe5e9f90	-0.21740556
183	0x3e894c04	0.26815808
184	0xbe109bc8	-0.14121926
185	0x3db225aa	0.0869859
186	0x3d7995b5	0.060933787
187	0x3d38da9f	0.04513037
188	0x3e755f96	0.23962244
189	0x3e364d61	0.17802955
190	0xbe8d5c1d	-0.2760934
191	0xbe37faab	-0.17966716
192	0xbc5b0158	-0.01336702
193	0xbe8524b9	-0.2600458
194	0xbe82e098	-0.25561976
195	0xbd42b838	-0.047538966
196	0x3e3f06b9	0.18654908
197	0x3c7b6ad3	0.015345293
198	0x3d3d14a5	0.046162266
199	0x3e0ee1ca	0.13953319
200	0x3d181ed6	0.037138782
201	0x3e86d6fc	0.26335895
202	0x3ea14d5d	0.31504336
203	0x3d145c02	0.036220558
204	0xbdd26c0a	-0.10274513
205	0x3e3c0d67	0.18364488
206	0x3e1b334c	0.15156287
207	0xbe4fb35d	-0.20283265
208	0x3e7814af	0.2422664
209	0x3beb54e2	0.0071817497
210	0xbe1d29cc	-0.15347975
211	0xbcba0c5e	-0.022710975
212	0xbe8403c2	-0.25784117
213	0x3e834a8a	0.25642806
214	0xbe0b5516	-0.13606676
215	0x3e6267a7	0.22109853
216	0x3e70b62b	0.23506992
217	0x3e1061bf	0.14099787
218	0x3e0802c8	0.13282311
219	0xbd930c77	-0.07180112
220	0xbe32b79c	-0.17452854
221	0xbe290f1b	-0.16509669
222	0xbd940539	-0.07227559
223	0x3e09fe3a	0.13475886
224	0xbe4db81a	-0.2008976
225	0xbdb4d203	-0.08829119
226	0x3dcc86f0	0.09986675
227	0x3dc22b66	0.09480934
228	0x3daeff36	0.085447714
229	0x3e969b06	0.29415148
230	0x3e29f548	0.16597474
231	0xbe88ad12	-0.26694542
232	0xbe469d62	-0.19395974
233	0x3e6656aa	0.22493997
234	0x3dca6a5f	0.0988357
235	0x3e307ed0	0.17235875
236	0x3e75308b	0.23944299
237	0x3d610112	0.05493266
238	0xbe606ab5	-0.21915706
239	0xbe5e6a74	-0.21720296
240	0xbd9d661a	-0.0768549
241	0xbd807cc6	-0.06273799
242	0xbe9490e0	-0.2901678
243	0x3dcc6e2c	0.09981951
244	0x3e5a85df	0.2134013
245	0xbc935e7f	-0.017989395
246	0xbdb91df0	-0.09038913
247	0xbde81011	-0.113311894
248	0x3c5faf3b	0.013652618
249	0xbe410f02	-0.18853381
250	0xbe95db2e	-0.29268783
251	0xbe53ec3c	-0.20695585
252	0xbe8bee56	-0.27330273
253	0x3cc07410	0.023492843
254	0xbe5e1d8b	-0.21690957
255	0x3d2f0581	0.04272986
